PC云端/jylz_qrs/weights/classroom_action_lr_front_v2_sm.torchscript.pth (torch, 7260 bytes, 2 tensors)

weight f4 [19, 28]
00000000: 4343 10c0 4522 bfc0 2701 f73f 472f 97c0
00000010: cb4b 5ac0 ef3e b7c0 d5aa 8141 a93d 233e
00000020: 830b 35c1 1846 363f c89b 32c1 1912 aa40
00000030: 6585 2f41 1d4f 6e40 162e 16c0 da11 2f40
00000040: efc8 05c0 c281 b440 8670 19c1 a141 b140
00000050: c383 dc40 66e4 f640 b159 6c40 18bc 4040
00000060: 2813 26c0 357c 3941 0447 fdbf d374 3abf
00000070: 34e3 173f 9bad 4b41 0b0f d4be aeab 2541
00000080: 4cce b2be 60b4 2d41 5b47 fb40 7636 05c1
00000090: 3bdd ebc0 55dd 70c0 f6d6 1dc1 6d49 00c1
000000a0: 5659 8a41 fc09 17c1 9e15 d840 29f3 78c0
000000b0: 449c 34c1 892b 52c0 eef0 0bbf 8b1b dc40
000000c0: 1d6d 443f 23aa ac40 3444 0cc1 6098 5940
000000d0: 9e72 9b40 ea13 0cc1 721b dcbf f765 f33f
000000e0: ddab c03e e3ab d73f 6d56 8d3e 0bb1 c53f
000000f0: 1aa5 193f 4d86 973f d4cf b1be e567 c2be
00000100: aee7 233f 5b5c 08bf e007 f9bf 1f52 6dc0
00000110: 0c0a 0d40 6e0c 46c0 4dac 79bf aca7 63c0
00000120: 11f5 dabd 7572 2fc0 f741 613f 66de ecc0
00000130: 885c 67c0 875c 00c1 c479 f03e 15fe 0abf
00000140: 1145 813d 8151 33c0 d037 da3e c5b2 06c0
00000150: d7ba 74bf e6ae 4bc0 2191 d43e 58bc 0bc0
00000160: 1b80 a8be ebf1 2ac0 b08a 8a3f ae25 a4bf
00000170: d4db e8bf 249a 1bc0 1d7b bac0 0425 02c1
00000180: 562b 3dbc f756 d5bf 2952 4cc0 e008 eac0
00000190: 939f e73f 7c7e 7041 a688 fbc0 660e 2041
000001a0: 5602 bbc0 7242 37c1 f29e 2e40 1564 47bd
000001b0: b2b9 57bf d076 6bc0 a8c8 4fbf cebf a8c0
000001c0: 2db0 853f ca8d 19bf cedf 753f 9ee7 493f
000001d0: 4aaa 4ebf 987d 7b3f ffe1 0e40 3a8b a33e
000001e0: cd5a 12c0 5bcb c13f 59a0 a63e 4cda 3840
000001f0: 94ab 33bd 3164 58c0 c6cf c340 74a6 3241
00000200: 880a 933f 0ebf 0fc1 91f1 4240 3cc3 74c1
00000210: 76f7 c240 0db0 7241 3edb 85be c7b1 8540
00000220: 5e7e 4a40 d679 85bb c666 fd3f 3e94 85c0
00000230: 6e39 20be b960 a23f a73e d5be 800c e73f
00000240: 7625 2fbf fdd0 f23f 0fa4 a8be 09c6 ed3f
00000250: 22b5 11c0 62e3 1840 b465 5e3e 6204 e83f
00000260: 01ab bc3b ec4c 0e40 555b 8c3e 4fbf 6f40
00000270: db11 35bf d64f dac0 0ec9 7dbf 4096 ff40
00000280: eb82 4b40 4393 c3c0 023a b0bf eb4b 7340
00000290: d539 38bd abbd d93f 4b0d b3be a758 a3bf
000002a0: 240c 8040 d04d 4840 4af6 5140 3647 3d40
000002b0: 5fa7 2e40 d510 3840 d29a 903f faea 8fbe
000002c0: 80ad 84bf adc6 c63f 953a 8ebf 6d54 8ebf
000002d0: 59cf c7bf a246 5bc0 af0e 1c3f 6867 3fc1
000002e0: 7efe 893f 3e5f 8540 92c7 fcc0 bc03 1ec1
000002f0: f03e 1b3f c167 1341 afe3 dabf b50e 5040
00000300: 2a18 34be c937 3d3e ff79 cb40 e528 cabf
00000310: abee 4abe 7afb 19c1 5069 a63f cb7c a7c0
00000320: 1577 b8bf 0302 bdc0 fe6a 0041 28b6 d73f
00000330: f637 eac0 6236 5bbf 3c96 4e40 a87f 7f40
00000340: 892a 11c1 ba07 5c3f e8b1 cdc0 57b3 88c0
00000350: 6e2e a740 556c b4c0 170e 9c40 2f82 cf40
00000360: d7d4 edbf d5d0 e640 ec5c 2c40 b271 1541
00000370: 7f2b 0dbf 31ac 2440 748e b53f cce5 a6c0
00000380: 19a5 7f40 331c ca3f 659b 843e aee0 d43d
00000390: 708b 0e40 256a 1e3f df0e f83f f7c9 5dbf
000003a0: 054d dabf 77d5 173f 1750 933f 9944 3a41
000003b0: 470f 7140 eed5 9e40 0c32 a9c0 4304 5d41
000003c0: 4b8e 913f a806 a241 339a 1841 ee1d 87c0
000003d0: 4e0b 2cc0 909d 15c1 ad69 a4c0 af95 9a3f
000003e0: 4887 44c0 bb15 4b40 452b 1040 9660 9dc0
000003f0: c0ab 47c1 c91d 2f40 5ba8 fac0 5c89 3b40
-2.2541053 -5.9729333 1.9297227 -4.724521 -3.410876 -5.7264323 16.208414 0.1594149
-11.3153105 0.71200705 -11.163033 5.314709 10.970067 3.7235787 -2.3465629 2.7354646
-2.090389 5.6408396 -9.589972 5.5392613 6.891084 7.7153807 3.6929743 3.0114803
-2.5949192 11.592824 -1.9787297 -0.7283451 0.5933106 12.729884 -0.41417727 10.354414
-0.34923017 10.856537 7.8524604 -8.325796 -7.3707557 -3.763509 -9.864981 -8.017926
17.293621 -9.439938 6.752639 -3.8898413 -11.288151 -3.2839072 -0.54664505 6.878362
0.76728994 5.3957686 -8.766651 3.3999252 4.8577414 -8.754862 -1.7195876 1.9015492
0.3763112 1.6849331 0.27605 1.5444654 0.6001755 1.183786 -0.34728873 -0.3796989
0.6402539 -0.53265923 -1.9455528 -3.7081373 2.2037382 -3.0945086 -0.97528535 -3.5571089
-0.10691274 -2.741361 0.8799128 -7.4021482 -3.6150227 -8.02259 0.469679 -0.5429395
0.063120015 -2.8018496 0.42620707 -2.1046612 -0.95597595 -3.18255 0.41516975 -2.1833706
-0.32910237 -2.6710155 1.0823574 -1.2823999 -1.8192086 -2.431283 -5.8275285 -8.134037
-0.011545977 -1.6667165 -3.1925147 -7.3135834 1.8095573 15.03088 -7.8604307 10.003515
-5.844035 -11.453722 2.7284513 -0.04867943 -0.84267724 -3.6791267 -0.8116555 -5.2734137
1.044439 -0.5998198 0.96044624 0.78869045 -0.8072859 0.98238516 2.2325437 0.3194216
-2.286792 1.5140184 0.3254421 2.8883238 -0.0438648 -3.3811152 6.119113 11.165638
1.1487589 -8.984144 3.045994 -15.297665 6.0927076 15.167981 -0.2614383 4.1779513
3.1639628 -0.004073362 1.9796989 -4.174346 -0.15646908 1.2685767 -0.41649362 1.805069
-0.68416536 1.8970028 -0.32937667 1.857606 -2.2766805 2.3888783 0.21718484 1.8126338
0.00575769 2.223445 0.2741343 3.7460515 -0.7073037 -6.8222456 -0.9913491 7.987091
3.1798656 -6.1117263 -1.3767703 3.8015087 -0.044977028 1.7011007 -0.3497108 -1.276143
4.001482 3.1297493 3.2806573 2.9574714 2.7289655 2.8760273 1.1297247 -0.2810896
-1.0365448 1.5529381 -1.1111628 -1.1119515 -1.5610152 -3.426186 0.60959905 -11.962746
1.078079 4.1678762 -7.8993616 -9.875912 0.6064291 9.212831 -1.7100734 3.2508976
-0.17587343 0.18478312 6.358642 -1.579373 -0.19817607 -9.623896 1.3000889 -5.2339835
-1.4411341 -5.9064956 8.026121 1.6852465 -7.319331 -0.85629857 3.2279196 3.9921665
-9.072885 0.8594929 -6.427967 -4.271892 5.2244177 -5.638224 4.87672 6.4846416
-1.8580579 7.212992 2.6931715 9.340258 -0.55144495 2.5730097 1.4184098 -5.2155514
3.9944518 1.5789856 0.25899807 0.10394417 2.2272606 0.61880714 1.9379538 -0.866363
-1.7054754 0.59310097 1.1508816 11.641747 3.7665575 4.9636145 -5.287359 13.81354
1.1371549 20.25325 9.537646 -4.2224035 -2.68819 -9.350967 -5.1379 1.207693
-3.070757 3.1732013 2.252641 -4.9180403 -12.479431 2.736193 -7.833051 2.9302588

bias f4 [19]
00000000: ef4f b9c0 5202 94c0 6ccd 1ac0 ed71 fcc0
00000010: c8dc cec0 c820 13c0 b4ff 1ac0 b5a9 27c1
00000020: 51ac c5c0 f321 fc3e 64a7 debf 081a 80c0
00000030: c547 84c0 0fe4 c9bf e5fa c5bf b45e 90c0
00000040: 6169 72c0 fb01 c9be 5708 cabf
-5.7910075 -4.6252832 -2.418788 -7.888907 -6.464451 -2.2988758 -2.4218569 -10.478932
-6.1772847 0.4924465 -1.7394834 -4.0031776 -4.133761 -1.5772723 -1.5467192 -4.5115604
-3.7876818 -0.39259323 -1.5783795
