PC云端/jylz_qrs/classroom_action_lr_front_v2.torchscript(1).pth (torch, 7227 bytes, 2 tensors)

weight f4 [19, 28]
0	0xbfc66d4c	-1.5502105
1	0xc0705ad7	-3.7555444
2	0x3ed05196	0.40687245
3	0xc084346a	-4.131398
4	0xc07a8d35	-3.9148686
5	0xc0c77d76	-6.234065
6	0x417394d2	15.223833
7	0x3fa8bca5	1.318257
8	0xc103fca5	-8.249181
9	0x40228bc2	2.5397801
10	0xc13e6835	-11.900441
11	0x3fd02fdb	1.6264604
12	0x4128ead4	10.557331
13	0x404d4020	3.2070389
14	0x3ff15512	1.8854086
15	0x4054a585	3.3226025
16	0xc11ba213	-9.727069
17	0x40b21059	5.5644956
18	0xc0c9fcc8	-6.312107
19	0x40678662	3.617577
20	0x409e6709	4.9500775
21	0x4094d07a	4.650449
22	0x40eefeb1	7.4685903
23	0x40ab45ec	5.3522854
24	0xc0f26323	-7.5746017
25	0x416e630b	14.89918
26	0x3fd3c9c9	1.6545955
27	0xbec30149	-0.38086918
28	0xc006e357	-2.1076257
29	0x400266a8	2.0375156
30	0xbff4033c	-1.9063487
31	0x409833bb	4.7563148
32	0xc0479d12	-3.1189618
33	0x408798d4	4.237406
34	0x415f6454	13.961994
35	0xc13ce936	-11.806936
36	0xc11b4da6	-9.706457
37	0xc0bec493	-5.961496
38	0xc165db7f	-14.366088
39	0x409e382c	4.944357
40	0x4190baa9	18.091143
41	0x410970ca	8.590036
42	0x41171f18	9.445091
43	0xc07becec	-3.9363356
44	0xc13bfccd	-11.749219
45	0xc0af5f7a	-5.480405
46	0xbf8e03b4	-1.109488
47	0x40a3c695	5.117991
48	0x3f956f81	1.1674653
49	0x40823c73	4.069879
50	0xc012a036	-2.2910285
51	0xbfc06da1	-1.5033456
52	0x40aa2940	5.3175354
53	0xc09140cb	-4.5391593
54	0xc08c424b	-4.3830924
55	0x3fac3ad3	1.3455452
56	0xbe9d35f2	-0.3070522
57	0x3fea89d8	1.8323317
58	0xbe21afa5	-0.1578966
59	0x3fdc941b	1.7232698
60	0x3d50aa74	0.050943807
61	0x3f8fed6f	1.1244334
62	0x3edbbd6f	0.42917964
63	0xbecd2d4e	-0.40073627
64	0x3e032fba	0.12811175
65	0xbee8994d	-0.4542946
66	0xbf36511e	-0.71217525
67	0xc03c1118	-2.9385433
68	0x3fd85105	1.6899725
69	0xc03ec8eb	-2.981013
70	0xbbef71d9	-0.007307273
71	0xc0367c02	-2.8513188
72	0xbfa33898	-1.2751646
73	0xc003ef5d	-2.0614846
74	0x3faaeb8f	1.3353137
75	0xc0cec3c5	-6.4613976
76	0xc055a6fa	-3.3383164
77	0xc0de0c7a	-6.939023
78	0x3f276e3d	0.65402585
79	0xbeb3588a	-0.35028487
80	0x3e992f40	0.2991886
81	0xc01f2513	-2.4866378
82	0x3f65c37c	0.8975141
83	0xc02da7db	-2.71337
84	0xc0c3d813	-6.1201262
85	0xc06ec5a4	-3.730813
86	0x409e963f	4.9558406
87	0xc0350246	-2.8282638
88	0xc0710ac7	-3.7662828
89	0xc01227c0	-2.2836761
90	0x40853446	4.162631
91	0xc0a1d53e	-5.0572805
92	0xc0996c2e	-4.7944555
93	0xbfab3836	-1.3376529
94	0xc0631ead	-3.5487473
95	0xc077ee5e	-3.8739238
96	0xc00a6464	-2.1623774
97	0x40a8c839	5.2744412
98	0xbef975d1	-0.487227
99	0xc14d64d5	-12.837117
100	0x3fa1dc82	1.2645419
101	0x412323b8	10.19622
102	0xc08aebf6	-4.341304
103	0x410b5b52	8.709795
104	0xc08295ee	-4.080802
105	0xc11646c7	-9.39228
106	0x412ad9ec	10.678204
107	0x3fa0201a	1.2509797
108	0x406d6a66	3.709619
109	0xc08ed47f	-4.4634395
110	0xbf9aff1a	-1.2109101
111	0xc028c02c	-2.6367292
112	0xbf4a0403	-0.7891237
113	0xc0dbf18c	-6.8732357
114	0xbf9e1b0a	-1.2352002
115	0xc09cc6bd	-4.89926
116	0xc0c52afd	-6.1614976
117	0xc01c6790	-2.443821
118	0x3fd8c814	1.6936059
119	0x3ed83b2d	0.42232648
120	0xc1012b1d	-8.073026
121	0x3f98fc01	1.1951905
122	0xc0883dcc	-4.2575436
123	0xc07e9da3	-3.9783714
124	0x4075193c	3.8296652
125	0x40ea99c8	7.331272
126	0x403fea47	2.9986742
127	0x41b8117e	23.008541
128	0x3f7253e6	0.9465927
129	0xc187bcba	-16.967152
130	0x40977d70	4.734062
131	0xc1651bc8	-14.319283
132	0x40a1197d	5.0343614
133	0x412a65e9	10.64988
134	0x3f79aeb9	0.9753223
135	0x401ca9cb	2.4478633
136	0x41004b16	8.018332
137	0x400e9272	2.2276883
138	0xc08e09f7	-4.4387164
139	0xc0940393	-4.6254363
140	0xbebcc946	-0.3687231
141	0x3f21c526	0.6319145
142	0xbf12b568	-0.57308054
143	0x3f93cef6	1.1547534
144	0xbf40587c	-0.75135016
145	0x3f8df163	1.108929
146	0xbeea420a	-0.4575351
147	0x3faee742	1.3664324
148	0xbffc3acb	-1.9705442
149	0x3fd990e6	1.6997344
150	0x3dbe0f51	0.09280265
151	0x4011599a	2.2710938
152	0x3e3fbaea	0.18723646
153	0x40230ae0	2.5475388
154	0xbdadc014	-0.084839016
155	0x4049f110	3.1553383
156	0xbe9f757a	-0.31144315
157	0xc0c5ddb2	-6.1833124
158	0xbeff8007	-0.49902365
159	0x40e902e3	7.2816024
160	0x403cef08	2.9520893
161	0xc0acf258	-5.404583
162	0xbfa62e5a	-1.2982895
163	0x406761c3	3.615342
164	0xbd10fb8d	-0.035396148
165	0x3fd5082f	1.6643122
166	0xbe22d18f	-0.15900253
167	0xbf7d1595	-0.98861057
168	0x40d6e348	6.7152443
169	0x3fad0a0e	1.3518693
170	0x40b2a011	5.5820394
171	0x3f859ee0	1.043911
172	0x40331599	2.7981932
173	0x3fabf8fb	1.3435358
174	0x3f9d0faa	1.2270405
175	0xbff9c19e	-1.9512212
176	0xc083fe02	-4.124757
177	0x3f72a910	0.9478922
178	0xbe541320	-0.2071042
179	0x400d6faf	2.2099416
180	0xc019df0d	-2.404239
181	0xc0ed9cab	-7.4253745
182	0xbfcac027	-1.583989
183	0xc1744600	-15.26709
184	0x3fe78c8c	1.8089767
185	0x40299cb1	2.6501887
186	0xc1180425	-9.501012
187	0xc10478b6	-8.27947
188	0xbffe89e6	-1.9885833
189	0x41357c9f	11.342925
190	0xc09a159d	-4.8151383
191	0x404a39fd	3.1597893
192	0xbf947e01	-1.1600953
193	0x4002f721	2.0463336
194	0x40e1a96a	7.0519304
195	0xbfba53fa	-1.4556878
196	0xbd581714	-0.052756384
197	0xc133b9d7	-11.232871
198	0x3efaed58	0.49009204
199	0xc0c8919e	-6.2677755
200	0xbf054570	-0.5205908
201	0xc0f40771	-7.6259084
202	0x40c74961	6.2277074
203	0x3fbd0b9f	1.4769171
204	0xc08b2996	-4.3488264
205	0xc009235b	-2.142783
206	0x40409d48	3.0095997
207	0x40c8fe48	6.28104
208	0xc119de37	-9.616752
209	0x404afb24	3.1715784
210	0xc0d2e2f6	-6.590205
211	0xc0413ddf	-3.0194013
212	0x40964d27	4.696918
213	0xc0b64b86	-5.696719
214	0x4073ef95	3.811498
215	0x409ed954	4.9640293
216	0xc003f1e9	-2.06164
217	0x40c0b310	6.021858
218	0x3fe14697	1.7599667
219	0x412dfcdb	10.874232
220	0xbf25a421	-0.64703566
221	0x40960c35	4.68899
222	0x4014de22	2.326058
223	0xc00434c1	-2.0657198
224	0x407de917	3.9673517
225	0x3fa0574f	1.2526644
226	0xbffccfad	-1.9750878
227	0xbf0d9c37	-0.5531649
228	0x40884519	4.258435
229	0xbed6761e	-0.4188699
230	0x4016e050	2.357441
231	0xc04852f8	-3.130064
232	0xbf1e70e7	-0.61891025
233	0xbf84820f	-1.0352191
234	0x40100534	2.2503176
235	0x419a7b27	19.310133
236	0x40115cf5	2.2712986
237	0x40468f63	3.1025016
238	0xc0b04e69	-5.5095716
239	0x4127ac7a	10.479609
240	0x400c3312	2.190617
241	0x418d29b8	17.64537
242	0x410df9c0	8.873474
243	0xc05fee38	-3.4989147
244	0xc00586cd	-2.0863526
245	0xc10df353	-8.871905
246	0xc103c9d4	-8.236774
247	0x3fce79d6	1.6130931
248	0xc09ea6b2	-4.9578485
249	0x3fcd2abe	1.6028669
250	0x40a9b5f0	5.303459
251	0xc0a1caaf	-5.0559916
252	0xc1908d16	-18.06889
253	0x3feb08eb	1.8362097
254	0xc0e632bc	-7.193693
255	0x405467f6	3.3188453

bias f4 [19]
0	0xc120d9fd	-10.05322
1	0xc193b833	-18.464941
2	0xc0a36ea4	-5.107256
3	0xc174fe6c	-15.312115
4	0xc12f15b1	-10.942796
5	0xc051d135	-3.278394
6	0xc0ed2568	-7.410816
7	0xc1434518	-12.204369
8	0xc0d8ed5d	-6.778975
9	0xc0c88bcc	-6.267065
10	0xc121d0d1	-10.113481
11	0xc11ef842	-9.93561
12	0xc144ea22	-12.307161
13	0xc102a632	-8.165575
14	0xc06e6005	-3.7246106
15	0xc0f94139	-7.7892118
16	0xc10ae3f1	-8.68065
17	0xbe97b6e9	-0.29631737
18	0xc183d32b	-16.47811
